data.pth (torch, 3487 bytes, 6 tensors)

l1.weight f4 [8, 14]
000000 2a 94 a3 be 79 d4 64 3f e1 dc 4d be ce 6f 52 3f
       -0.31948978 0.8938671 -0.2010379 0.8220185
000010 de dc 4d be 60 e2 39 be 34 b6 7c bd 51 7c 60 3b
       -0.20103785 -0.18152761 -0.0616972 0.0034253786
000020 fc 03 94 bd 74 86 e6 3e c9 80 84 3f 6a fe a5 bc
       -0.072273225 0.45024455 1.0351802 -0.020262916
000030 9d 94 99 3e bb 86 a1 3d 1c a9 07 3d f0 1a 13 3f
       0.29996195 0.07887026 0.03312026 0.5746298
000040 ba 90 bb be 02 ff a1 3e df 51 d7 be 99 2a 89 3e
       -0.36633855 0.31639868 -0.4205465 0.26790312
000050 d3 e1 b7 bc 6d df b3 3e 4a 3b a4 be 39 da 80 3e
       -0.022446549 0.35131398 -0.32076484 0.2516649
000060 9c a9 3a 3f 22 0a 9b bd 34 e7 34 3f 49 67 70 be
       0.72915053 -0.07570292 0.7066529 -0.234769
000070 60 d6 0e 3e 0a dc 35 be 3c 96 da 3d dc 78 7e 3e
       0.13948965 -0.1775972 0.10673186 0.24850792
000080 1c b3 ce 3d 68 71 df bd a8 e8 19 bd a1 4d 76 3e
       0.10092756 -0.109103024 -0.037575394 0.2405305
000090 80 01 d8 bb 37 6a 82 3e 88 33 f4 3d e4 11 6d be
       -0.0065919757 0.2547166 0.11923891 -0.23151356
0000a0 79 d3 7f be ac b2 5d 3e 6e be 5e be 27 b1 d1 3e
       -0.24983014 0.21650189 -0.2175233 0.4095547
0000b0 6b 32 e5 be cb 08 14 3f 28 da e4 be bb cd 2f 3d
       -0.44765028 0.57825917 -0.4469769 0.04292081
0000c0 ff 4b ba bd 75 06 16 3e 71 04 d7 bd ab 4d 8f 3e
       -0.09096526 0.146509 -0.10498894 0.27988943
0000d0 55 93 91 3f 80 5e 2c bc bc 29 88 3e 6e 5f 7d be
       1.1373087 -0.010520577 0.2659434 -0.24743435
0000e0 39 ab 86 3f d0 bc fd be 4b be fd be 92 bf fd be
       1.0521003 -0.49558115 -0.49559245 -0.4956022
0000f0 92 bf fd be 6a 4f 77 3f dd b8 d0 3e ea 35 a0 be
       -0.4956022 0.9660555 0.4076604 -0.31291133
000100 20 98 71 3e d5 76 0a bf 09 a2 83 3f 92 ca 37 3e
       0.23593187 -0.54087573 1.0283824 0.17948368
000110 f3 33 3a 3f 0a e0 66 3e 0c 4a c3 be f8 b1 fa be
       0.7273552 0.22546402 -0.3814243 -0.48963904
000120 97 a2 1e 3f e0 64 db be 7a d8 06 3f 20 07 e8 bd
       0.6196684 -0.428504 0.5267407 -0.11329484
000130 50 cc 27 3f f2 e9 32 be 02 8e 75 3f 9b ce a3 be
       0.6554613 -0.17472056 0.9591981 -0.31993565
000140 fc 82 39 3f f3 7c 8d 3e 37 c1 ae 3b 1c f4 70 3f
       0.7246549 0.2763439 0.0053330916 0.9412248
000150 31 33 ea 3e 68 cf 0a bf 18 06 2c 3e 1a cf 0a bf
       0.4574218 -0.54222727 0.167992 -0.5422226
000160 b8 6b 1d 3e 3b 45 d5 3e a1 b2 c7 3e 00 79 fd be
       0.15373123 0.4165438 0.3900347 -0.49506378
000170 4d aa 5e 3f b0 80 ba be 4a c6 d6 3e be 8f a6 3e
       0.8697861 -0.36426306 0.41948158 0.32531542
000180 20 ee d2 3e 06 64 45 3f 02 82 26 3f e6 60 0a 3f
       0.411973 0.7710575 0.65042126 0.54054105
000190 5f 38 96 3f 84 e9 1a 3f 23 b0 85 3f 81 b4 9f 3e
       1.1735953 0.60512567 1.0444378 0.311924
0001a0 96 d4 93 be 53 87 01 3f b1 47 41 3e c2 db e4 3e
       -0.28873128 0.50597113 0.18875004 0.44698912
0001b0 f2 c2 70 bf 12 e7 5d bd 63 39 a4 3d 99 ee 74 bd
       -0.9404746 -0.054175444 0.08018758 -0.059797857

l1.bias f4 [8]
000000 3b df 4d 3e 68 f8 13 3f ff 61 87 be 5a d6 e4 3e
       0.20104687 0.5780091 -0.26441953 0.44694787
000010 e3 bc fd 3e 0a 87 fa 3e 6b cf 0a 3f 00 3d 7a 3f
       0.49558172 0.48931152 0.54222745 0.9774933

l2.weight f4 [8, 8]
000000 20 d6 9b 3f f0 66 6c 3f f9 54 28 3b ec 14 a2 3f
       1.2174721 0.9234457 0.0025685413 1.2662635
000010 fb c4 03 bf 23 ed 6e bd 52 08 36 bf 6a 27 2e 3e
       -0.51472443 -0.05833162 -0.71106446 0.17007223
000020 fe 48 26 bf 03 42 27 bf ce 1d 28 3e 8b d2 0f bf
       -0.6495513 -0.653351 0.1641762 -0.5618064
000030 16 e4 ed be 48 eb 8e 3f 7e a3 71 3f 8e db 72 3f
       -0.46463078 1.1165552 0.94390094 0.94866264
000040 68 c7 a9 be 6a ec b3 be 74 ab c4 3d 53 10 a5 3d
       -0.33159947 -0.35141307 0.096030146 0.08059754
000050 e4 e1 33 bc d3 c8 ac be e1 b9 61 3e 5a 11 54 3e
       -0.0109791495 -0.33746967 0.22043563 0.20709744
000060 5b 74 6b bf f8 73 bb be dc b5 a3 bd 91 37 1f bf
       -0.9197442 -0.36611915 -0.07993671 -0.6219416
000070 2f e4 33 3f f5 82 d4 3e 47 fd 6f 3f fa b9 a6 3f
       0.70270056 0.41506162 0.93745846 1.3025506
000080 7d 5c 22 3f 21 46 92 3e 46 9f 23 3d 28 ec 21 3f
       0.63422376 0.2856913 0.039946817 0.6325097
000090 20 1e 7d 3f a3 92 83 3f cc 80 82 3f a4 83 7b bf
       0.9887409 1.0279125 1.0195556 -0.9824774
0000a0 9e b1 27 3f 33 64 ab 3f 92 fb 71 be 37 be 84 3f
       0.655054 1.3389953 -0.23631123 1.0370549
0000b0 1a 43 92 3f 19 57 46 bf 68 cb 89 3d 52 3c 32 bc
       1.1426728 -0.7747665 0.0672825 -0.010878639
0000c0 e8 cc 21 3f 90 cf 0e be 0d e6 9f be 1e fa b0 3e
       0.6320329 -0.13946366 -0.31230202 0.34565824
0000d0 04 eb 97 3e a4 7a 0a 3f e4 7c e6 3d 9d 27 05 bf
       0.2967149 0.54093385 0.1125429 -0.5201357
0000e0 e6 e0 1f 3e 38 8c 30 3f da 00 73 3e 40 c5 4b bd
       0.15613136 0.68963957 0.23730794 -0.04974866
0000f0 35 65 74 bf ad 10 5b bd c4 0d 83 be 8b d4 cc 3f
       -0.9546693 -0.0534827 -0.2559644 1.6002363

l2.bias f4 [8]
000000 65 13 f5 3e 94 da 82 3e 5a 5b 8e be 35 a9 e0 3d
       0.4786636 0.25557387 -0.2780407 0.10969774
000010 5c 29 3a 3e 52 24 0d 3f e2 46 b5 bd ff 1f 43 3f
       0.1817984 0.55133545 -0.088514104 0.762207

l3.weight f4 [5, 8]
000000 86 75 60 bf 84 59 48 3f ed 56 a4 3c fa d5 97 3e
       -0.87679327 0.7826159 0.02006098 0.2965544
000010 3a 12 f6 3e 3d d4 53 bf 48 64 54 3f 3c 96 c7 bf
       0.4806078 -0.82745725 0.8296552 -1.5592723
000020 99 6e 9c bf 6e 03 92 be d3 58 39 bd d8 a4 d8 3e
       -1.2221252 -0.28518242 -0.045250725 0.42313266
000030 4d cf 72 bd 99 6f 41 3f 93 c2 63 bf 70 0c 62 bf
       -0.05927973 0.7556091 -0.8896877 -0.8830023
000040 e1 3f 38 3f dc ed 84 bf af d2 11 3e 42 75 63 bf
       0.7197247 -1.0385089 0.14240526 -0.88850796
000050 ac 5e 5f bf 51 64 c7 3e 99 d4 de be f7 77 6a 3f
       -0.8725383 0.38943723 -0.43521574 0.915893
000060 1e 37 30 bf 32 4a 26 3f 59 27 a2 bd 42 5e b5 3e
       -0.688341 0.64956963 -0.07917661 0.35423476
000070 6f 03 79 bf 42 d5 2d bf 06 bd 21 bf 32 7d 32 3f
       -0.97270864 -0.6790353 -0.6317905 0.6972228
000080 e8 e0 d4 3e 2f 3d 79 bf a6 7c 1c 3d ea 96 b0 bf
       0.4157784 -0.97358984 0.03820481 -1.3796055
000090 9f 56 1a 3f e9 11 1c 3f f0 37 74 3f 83 ea b7 bf
       0.60288423 0.6096483 0.95397854 -1.4368442

l3.bias f4 [5]
000000 e5 33 ba be 29 73 72 be e1 1b 9d 3e a3 e3 ad 3e
       -0.36367717 -0.23676743 0.30685332 0.33962736
000010 73 53 8c bd
       -0.06851854
